RESNET50 results. batch size 256
Model: "sequential"
_________________________________________________________________
Layer (type)                 Output Shape              Param #   
=================================================================
resnet50 (Model)             (None, 4, 4, 2048)        23587712  
_________________________________________________________________
global_average_pooling2d (Gl (None, 2048)              0         
_________________________________________________________________
dropout (Dropout)            (None, 2048)              0         
_________________________________________________________________
flatten (Flatten)            (None, 2048)              0         
_________________________________________________________________
dense (Dense)                (None, 512)               1049088   
_________________________________________________________________
dense_1 (Dense)              (None, 92740)             47575620  
=================================================================
Total params: 72,212,420
Trainable params: 72,159,300
Non-trainable params: 53,120
_________________________________________________________________

Found 3064239 images belonging to 92740 classes.
WARNING:tensorflow:From <ipython-input-7-bab7bae77c60>:22: Model.fit_generator (from tensorflow.python.keras.engine.training) is deprecated and will be removed in a future version.
…
