
With 
Model: "sequential"
_________________________________________________________________
Layer (type)                 Output Shape              Param #   
=================================================================
conv2d (Conv2D)              (None, 126, 126, 16)      448       
_________________________________________________________________
max_pooling2d (MaxPooling2D) (None, 63, 63, 16)        0         
_________________________________________________________________
batch_normalization (BatchNo (None, 63, 63, 16)        64        
_________________________________________________________________
dropout (Dropout)            (None, 63, 63, 16)        0         
_________________________________________________________________
conv2d_1 (Conv2D)            (None, 61, 61, 32)        4640      
_________________________________________________________________
max_pooling2d_1 (MaxPooling2 (None, 30, 30, 32)        0         
_________________________________________________________________
batch_normalization_1 (Batch (None, 30, 30, 32)        128       
_________________________________________________________________
dropout_1 (Dropout)          (None, 30, 30, 32)        0         
_________________________________________________________________
conv2d_2 (Conv2D)            (None, 28, 28, 64)        18496     
_________________________________________________________________
max_pooling2d_2 (MaxPooling2 (None, 14, 14, 64)        0         
_________________________________________________________________
batch_normalization_2 (Batch (None, 14, 14, 64)        256       
_________________________________________________________________
dropout_2 (Dropout)          (None, 14, 14, 64)        0         
_________________________________________________________________
conv2d_3 (Conv2D)            (None, 12, 12, 32)        18464     
_________________________________________________________________
max_pooling2d_3 (MaxPooling2 (None, 6, 6, 32)          0         
_________________________________________________________________
batch_normalization_3 (Batch (None, 6, 6, 32)          128       
_________________________________________________________________
dropout_3 (Dropout)          (None, 6, 6, 32)          0         
_________________________________________________________________
flatten (Flatten)            (None, 1152)              0         
_________________________________________________________________
dense (Dense)                (None, 512)               590336    
_________________________________________________________________
dense_1 (Dense)              (None, 92740)             47575620  
=================================================================
Total params: 48,208,580
Trainable params: 48,208,292
Non-trainable params: 288

Found 3064239 images belonging to 92740 classes.
WARNING:tensorflow:From <ipython-input-4-3fa8163880e1>:22: Model.fit_generator (from tensorflow.python.keras.engine.training) is deprecated and will be removed in a future version.
Instructions for updating:
…
